scripts/traffic_following_control_v1_128.pt (torch, 71548 bytes, 5 tensors)

fc1.weight f4 [128, 3]
00000000: 19b7 4e3d 920f 883d 1955 ccbd 076d 613f
00000010: 8d95 9abe 45a0 24be 0da5 c2bf fa90 2c3e
00000020: b46f fa3b 211f 8dbf d12c 9dbf 3a07 593e
00000030: 806b 8abf b27b 59bf a0ca 153e ba11 123d
00000040: 4b2a 03bf 5914 49be 9dc0 45bf 4c39 183f
00000050: e7be 933e b6fc 25bd f938 c03d 7cbd 9ebd
00000060: 161d d73e 3ce6 95be 4757 8fbd a08a 40be
00000070: d524 283f df38 e03d 4160 733f 143c c3be
00000080: 04d1 26be 8aa5 6dbf 6a55 cc3f 0441 b43d
00000090: 23aa d4be 859b 9fbf 9ac6 9cbc 0084 bfbf
000000a0: fa89 423e 1a61 e33c 24d7 15bf c1e0 393f
000000b0: 1816 5f3e b4e7 8bbf b204 aabf 9bac 583e
000000c0: ea36 c3bf 292f 383e f89e f13c f8b0 d8be
000000d0: 1ba5 a6bf 9665 d6bc 43b5 33bf d9ef 183f
000000e0: b7a6 7f3e 6e64 753e 8478 03be f69d 30be
000000f0: 3e11 c13d 4673 413c 8041 fcbd 4fe1 4b3f
00000100: d45e 9bbe a536 10be b471 6b3f d46e 943d
00000110: 2f6c 9fbe 0605 cf3d 0a84 d7bc 7a22 0cbe
00000120: bc39 ccbf 155e 353e 83bc de3c b53d 85bf
00000130: cbb5 b2bd 8eb8 9c3e 868f 553f e73f 9ebe
00000140: 2b55 27be a3b2 8d3f 1766 0c3f 34b2 85be
00000150: 55f5 6cbf d8a8 cb3f 426b 9a3d 1a79 babf
00000160: 0d92 95be c9a3 d43e 6eb5 8bbf e113 d2bd
00000170: aeb3 a73e 7d71 f9bc b70f f23d 360d 95bd
00000180: 1ada 5d3f 8d7c b2be eaa9 1bbe e80b 87be
00000190: d40a 713e fb1c 0b3e db62 24bf 4c07 1c3f
000001a0: 49e7 803e b669 85bf 5e6a 50bf 6c70 fc3d
000001b0: f7ef 523e 2839 f0bd a2cb 12be 17ca c03d
000001c0: 7394 eabe 7a3a b63c 8bd2 76bf 8d39 3cbf
000001d0: f183 fd3d ee78 c9bf 2278 4e3e d106 de3c
000001e0: a63f cfbf def4 573e 7c9b f13e fe6f 4dbe
000001f0: d073 cdbe dc3f ffbd f532 98bd 7648 063e
00000200: 1efc 6fbd 3817 8b3f bcac 053f 0dd2 86be
00000210: 82a6 e83d 72bc 12bf ece3 56be fb9b a83e
00000220: da98 71be f5d3 4cbd c278 b2bf 82fe 4abe
00000230: fc71 cf3e 4260 8d3f c7c7 ce3f 72fd b7be
00000240: 7024 43bf 7684 2abf 4ab4 7f3d 5213 74bf
00000250: da11 c93f 37ae 773d 2d5c 8a3f cdb7 cc3f
00000260: c1bb b7be 9279 53be 5de0 c7be 9192 efbd
00000270: 9ced 8b3f 814c cc3f e2f1 b8be c980 55be
00000280: 3e44 313f 6d82 013e ef26 31be 07bb 923f
00000290: 2cdc b0bd c55f c73d 23a2 10bf 82d6 51be
000002a0: 29bb cbbf ba94 5c3e bcff c33c b4c7 453e
000002b0: 99b3 f1bd 05cf 22be d861 d9bc b9fd f73d
000002c0: 713e 8ebd 270f c9bf 2093 353e ba16 823c
000002d0: 7c9b 923f 3361 d33f 0532 c1be c5b3 9f3e
000002e0: f86d 6b3f b209 26ba 6e16 233e d209 d3bd
000002f0: f784 12be 8fa0 49bf 2138 e53e c51b 973e
00000300: 7e85 45bf 0385 0c3f d91d 943e 5cf8 9dbe
00000310: e0f0 ad3f 05f2 a63d 9f62 c7bf 161b 3e3e
00000320: e629 3c3c 4466 94bd 4bed 293e 4108 64bd
00000330: 82f7 7c3f 334b e2be 4fb7 2abe 741c ad3d
00000340: 0a82 e8be 08d1 dc3c 06f3 65be 5b3a c6be
00000350: 188b e9bd 633c fabe 32bf 173f 3be1 513e
00000360: 5ec7 cd3e 6515 f83f d469 6bbe 65c3 c33d
00000370: b602 e8be b4a2 e13c 0312 d83d bf6d 09bf
00000380: 75d2 b23c 1a61 66be 440b c3be 2f39 f3bd
00000390: 2d3c 9bbf 648e 3b3f c857 9f3e 443b 4abe
000003a0: 2859 2a3f a48a 013e d529 c3bf 943f 4c3e
000003b0: 06b5 733c 312b 783f 020d d83d 2b42 a6be
000003c0: d1f4 5d3f 4915 a7be e602 38be 0d67 be3d
000003d0: 5e51 aaba 707b d3bd a408 94be 5004 8e3e
000003e0: 0f28 2b3e 0427 7f3d 8bf2 6c3d 2546 e7bd
000003f0: 0de0 f73d d0f4 3fbd 8f81 02be 2f37 9b3d
0.050467584 0.06643595 -0.099771686 0.8805699 -0.30192223 -0.16076763 -1.520662 0.16852179
0.0076427106 -1.1025125 -1.2279302 0.21194163 -1.0814056 -0.8495437 0.14628077 0.035661437
-0.5123641 -0.19636668 -0.7724703 0.5946243 0.28856584 -0.040524207 0.09385867 -0.07750985
0.42014378 -0.29277217 -0.06999069 -0.18802881 0.656812 0.10948347 0.95068747 -0.38131773
-0.1629067 -0.9283072 1.5963566 0.08801463 -0.41536054 -1.2469336 -0.01913767 -1.4962158
0.18997946 0.027756263 -0.58531404 0.7260857 0.21785772 -1.0930085 -1.3282683 0.21159594
-1.5251133 0.1798674 0.029494748 -0.42322516 -1.3019136 -0.026171487 -0.7019846 0.5974098
0.2496594 0.23964092 -0.12838942 -0.17247757 0.09427117 0.0118072685 -0.12317181 0.7964067
-0.30345786 -0.14083345 0.9197037 0.07247701 -0.31137225 0.1010838 -0.026308078 -0.13685027
-1.5955119 0.1771167 0.027189499 -1.0409456 -0.087260805 0.30609554 0.83422124 -0.3090813
-0.16341083 1.1070141 0.54843277 -0.2611252 -0.92561847 1.5910902 0.07539989 -1.4568207
-0.2921299 0.41531208 -1.0914743 -0.10257698 0.32754272 -0.030449623 0.118194036 -0.072779104
0.8666092 -0.3486065 -0.15201536 -0.2637627 0.23539287 0.13585274 -0.6421334 0.60948634
0.25176457 -1.0422885 -0.81412303 0.1232613 0.20599352 -0.11729652 -0.14335492 0.094135456
-0.45816383 0.02224468 -0.96415013 -0.73525316 0.123786815 -1.574003 0.20163015 0.02710286
-1.6191299 0.21089503 0.47188938 -0.20062253 -0.4012742 -0.12463352 -0.07431594 0.13113579
-0.058590047 1.0866461 0.52216697 -0.2633213 0.11359884 -0.57318795 -0.20985383 0.32931504
-0.23593464 -0.050006825 -1.3943102 -0.1982365 0.4051665 1.1045 1.6154717 -0.3593555
-0.76227474 -0.6660837 0.062427796 -0.9534198 1.5708573 0.06046888 1.080938 1.5993592
-0.35885432 -0.20651844 -0.39038363 -0.11697877 1.0931888 1.5960847 -0.36122042 -0.20849909
0.69244754 0.1264741 -0.17300008 1.1463326 -0.086357445 0.097350635 -0.564974 -0.20491984
-1.5916492 0.2154111 0.023925655 0.19314462 -0.11801834 -0.15899284 -0.026535913 0.12108941
-0.069455035 -1.5707749 0.17731905 0.015879977 1.14537 1.6514038 -0.37733474 0.3119184
0.91964674 -0.0006333842 0.15926525 -0.103046075 -0.14308535 -0.7876062 0.44769385 0.29513374
-0.7715682 0.5489046 0.28929022 -0.30853546 1.3589134 0.0815163 -1.5576972 0.1856502
0.011484599 -0.07246068 0.16594426 -0.055671934 0.98815167 -0.44197997 -0.16671489 0.08452693
-0.45411712 0.026955143 -0.22455987 -0.38716397 -0.11403483 -0.48874196 0.59276116 0.20496075
0.40191168 1.9381529 -0.22989589 0.09558753 -0.45314568 0.027543403 0.105503105 -0.53683084
0.02182887 -0.22497979 -0.38094532 -0.11876141 -1.2127739 0.73264146 0.3112166 -0.1974917
0.6654229 0.12650543 -1.5247141 0.19946128 0.014874702 0.96940905 0.10549356 -0.32472357
0.86701685 -0.32633427 -0.17969856 0.09296999 -0.001299422 -0.10326278 -0.28912842 0.27737665
0.167145 0.062293068 0.057848494 -0.11292676 0.12103281 -0.04686433 -0.12744735 0.07578885

fc1.bias f4 [128]
00000000: beda 523f 54be 9dbe a2d2 d23c 80a4 b13e
00000010: 2f39 0d3e 6919 c93e be33 62bd 0689 4c3f
00000020: 6c07 74bf c851 d1be ef16 3cbe 702b 88be
00000030: 0c46 923e 1756 443d a806 3bbe e72d d03e
00000040: 1bbd ee3c c867 a13e 264d 18be e14b 513f
00000050: 6551 4d3f bff1 97be 484b bbba d6ea 683f
00000060: 1cd0 5b3d efcb 673c e1df f8bd 0eed 0c3f
00000070: f2ed 79be 5367 2a3d 7288 363d 74dc 5f3f
00000080: 6545 bcbd 584a 0cbf 1f3d 23be 3c21 0a3e
00000090: ceb2 613f af7f 5abf 215b 5c3e 1207 533d
000000a0: b0d0 c33c abd2 df3e 0248 653f 53c8 123f
000000b0: 6b1b e93e 210a 85bf 0274 243c 7468 bebe
000000c0: 4c6a 6a3e a873 8cbe fc81 b4be b0df dc3e
000000d0: 2cbb c2be 8efc a8be 0011 09bb 7ccb e63e
000000e0: 0288 5f3d a913 743f d656 623f 0962 b03d
000000f0: bdbe b5be 3c3c 81be 19f6 603f 5018 f0bd
00000100: 3a3f 12be 1656 c0be 1c95 9e3c 48c5 6e3f
00000110: 108c 7abe 1f71 6ebf 6314 f83e 0b43 c6be
00000120: 6332 fdbe e291 85bf a7a1 6dbf 52a4 fb3e
00000130: 5f4d 0bbd 4105 c1be 11c5 953c ac10 6ebd
00000140: 46aa 8dbd 6103 4e3f ef59 0cbf 3aef 583f
00000150: 6f8b 4a3f bd2b d43e 501e 4f3e 03ec a73c
00000160: f1fc b83e 0cde 0c3f 11da 62bf ed6d 6fbf
00000170: 73c7 503f a95a 0f3d 239b 123f 9952 2e3e
00000180: 3410 6d3f 67fd 15bf aa14 d03e fa71 533f
00000190: 0986 5f3f ea26 86bf b5d6 11bf b5c6 08be
000001a0: 5fee 0fbe 29b4 3a3d ae85 26be ddeb 573f
000001b0: 319a d3be c229 283e a206 8c3e c1c1 103f
000001c0: 094b 5c3f 6db7 1e3d 681a 3c3e 3e1d 94be
000001d0: b3d3 babe b420 0cbe 6780 0abf 939f 663d
000001e0: 1dee 23bd f4ca e0bd d1ff 623f 8ece 69bf
000001f0: 328e 893e c7d7 2dbe 9918 2fbe 47d4 7dbf
0.82365024 -0.3080927 0.025735203 0.34695816 0.13791345 0.392772 -0.055225126 0.7989658
-0.95323825 -0.40882707 -0.18368123 -0.2659564 0.28569067 0.047933664 -0.18264258 0.4066002
0.029142907 0.3152449 -0.1487318 0.8175641 0.80202323 -0.29676625 -0.0014289403 0.9098333
0.053665265 0.014147743 -0.121520765 0.55049217 -0.24407175 0.041602444 0.04456372 0.8744576
-0.091929235 -0.5480094 -0.15941285 0.1348924 0.8816346 -0.8535108 0.21519138 0.051520415
0.02390322 0.43715414 0.89563 0.5733692 0.4552873 -1.0393716 0.010037424 -0.37189066
0.22892112 -0.2743199 -0.3525542 0.4313941 -0.38033426 -0.33005184 -0.0020914674 0.4507712
0.054573067 0.953425 0.8841375 0.08612449 -0.35497084 -0.25241268 0.87875515 -0.11723387
-0.14281932 -0.37565678 0.01935821 0.9326978 -0.24467492 -0.9314136 0.48453054 -0.38723025
-0.49452505 -1.0435145 -0.92824787 0.49148804 -0.034009334 -0.3769932 0.018282445 -0.05812137
-0.06917243 0.80473906 -0.5482473 0.8474003 0.7911901 0.4143962 0.20226407 0.020498281
0.3613048 0.55026317 -0.8861399 -0.9352711 0.81554335 0.03499857 0.5726797 0.17023696
0.9260285 -0.58589786 0.40640765 0.8259579 0.87313896 -1.0480626 -0.5696824 -0.1335705
-0.14055775 0.04558197 -0.16261932 0.84344274 -0.41328576 0.1642218 0.2734881 0.56545645
0.86051995 0.038749147 0.18369448 -0.2892856 -0.3648964 -0.1368435 -0.54102176 0.056304526
-0.040022004 -0.1097621 0.88671595 -0.913308 0.268663 -0.16976844 -0.17099227 -0.99152035

fc2.weight f4 [128, 128]
00000000: 95a4 5bbd 3dcd 2bbe b087 05be 9618 26be
00000010: c4b8 bcbd 64e8 0fbd c906 5fbc 47dc 47bd
00000020: e155 07be ce29 93ba 9e47 3bbe ac46 9b3d
00000030: 7e4e c2bc d8cf 0cbe 6d3d 45bd 6170 33be
00000040: f3f8 f9bd e3b2 adbc e6d9 33bd 8905 d7bc
00000050: 45b6 87bd 89ea 04be 8a35 80bd ae6c 89bd
00000060: 130a 01be ef3e c4bb 15f9 24be f76a 51bd
00000070: 5efe b43d cc31 733d d468 9ebc f70d 78bd
00000080: afc8 3dbe 9019 55bb 862b 79bd 4a18 8fbd
00000090: f59f 0fbd 9d65 efbd fb78 b0bd 9955 08be
000000a0: 005c 8c3d 182e 5fbd 9fb1 91bd ab98 dcbc
000000b0: 10c2 4cbd 1932 e3bd 95d0 343d 9d32 ae3d
000000c0: 13f8 81bd 9411 c43d 7d41 883d f24d 64bd
000000d0: 4f3d 393d e96a 8bbc 0ddd 353d 19dc 4fbd
000000e0: f0c2 16be c09d 5abd 4d8d 19bd a957 06be
000000f0: e048 fd3c 10cd c13c 98ce 64bd 4d7d 26bd
00000100: 66d2 aa3b 1f8a a23d 7ff7 03be fdaf 3bbd
00000110: 84e9 36be 5c1a adbd 626a 8abd 2006 90bc
00000120: a9e0 ee3d 5c3e fbbd f22f 07be c9df 4ebd
00000130: a4b5 803d 8e62 45bb 3996 11be b81a 93bd
00000140: a537 12be db10 80bd 00ad ffbb 6405 15bd
00000150: 1002 4dbd 9c6c 1abd 34b4 03bd a33a f1bd
00000160: 605b 73bd 3a4f 85bd 9805 d8bd ab9b b0bd
00000170: 8354 80bd 1c04 d4bd 4630 e3bc 5590 b3bd
00000180: 2e2b 45bd 5263 a0bc 5984 19bd e013 5ebd
00000190: 168d 65bd af9f f3bd 29c0 6c3c ed56 26bd
000001a0: 62c5 013d 1c3f 03be 93fa 04bd f40f 66bd
000001b0: 1277 0b3e 979a babd 25c0 babc 6f85 7fbd
000001c0: bc84 81bd 1082 01be ae29 f5bd 8f9e 2dbe
000001d0: 4f3a 073d ae11 45be 9eab 873b fc2c ffbd
000001e0: 9386 a6bd f900 31be 8581 4ebd 94a6 d1bd
000001f0: 1f54 03bd 7bac d6bd a123 cebd 540f dabd
00000200: 5daf 42bd 7b60 123b 53de acbd 91a6 a93c
00000210: e380 b8bd 30e2 f73b a281 96bd ac35 11bd
00000220: 4b2c 00b9 f1bd f8bd e769 a539 43ac a7bd
00000230: 7205 c63c 6a4c a6bd fd84 bdbd 1bdd ffbb
00000240: 1d81 c2bd 8318 4f3c 4761 7dbd 3e0d 013c
00000250: 920e adbc 12ce b83b 5d7c 263d f5c4 8ebc
00000260: dcfb d4bd b711 a9bd e7c3 4ebc bb90 a23b
00000270: e07d acbd 2aae 99bd 5a07 b1bd 4ec4 e0bc
00000280: 25c4 3cbd bd61 dbbc 285e 89bd cad5 90bd
00000290: a2f7 0d3d f9ef 07bd 23e8 08bd 3cc4 cdbd
000002a0: 3789 aabd dc4e b13c 051a 03bd 6d86 953c
000002b0: e2c1 453d 3bee 2abd c319 51bd ea5f 15be
000002c0: 1b2c 2fbd c86e b4bd 8ce3 19be c515 1e3c
000002d0: c016 d3bd a5bd 23be 0c6b 8fbd f54b f33c
000002e0: 681b e0bd 47af 173c 8441 e8bb 1534 cabd
000002f0: ae10 09be 26be 66bd a4bb 9d3c 6080 82bd
00000300: 1229 d0bd a796 7cbd 444c b0bd 257f 28bd
00000310: 3ca7 c8ba b67d 01bd f088 b93c f8d5 0abe
00000320: eda7 bfbc 5508 24bd 91d9 75bc 7ffe 25bb
00000330: 329b 88bd fef2 bfbd cc25 a5bd d8a7 4c3d
00000340: d042 a2bc a664 8ebb ff50 95bd 4aad 33bd
00000350: 368e ffbc 48f2 9b3c 0dc3 bb3c 02da 9dbd
00000360: bb58 92bb 9ee7 ef3c 8758 2bbd 84ad 8abd
00000370: 15a1 82bd d344 cebd 9a3a f73c 8ef1 4ebd
00000380: ac05 2f3d 6a3b 28bd 8c12 003d 1135 093c
00000390: 92c3 2bbd 3dc8 4dbc aa7b 94bd bb66 c0bd
000003a0: c921 cfbc 35bd bdbd 825a 9bbd 1cb1 773c
000003b0: 6247 41bd e5b9 bbbd 7f67 403d 2ac7 633d
000003c0: ff70 a1bb 4f43 bcbd b164 11bd 0694 c9bc
000003d0: d17b 1dbe c06c bebc bd45 adbd 7323 c2bd
000003e0: e668 a23d 529e 24bc 791f 10bd c80e 3bbd
000003f0: 5216 043d b334 ecbc e967 d43b 6ddd 0cbd
-0.053623755 -0.16777511 -0.13040042 -0.16220316 -0.09214929 -0.035133734 -0.013612458 -0.048794057
-0.13216354 -0.0011227669 -0.18289039 0.07581839 -0.023719069 -0.13751161 -0.048154283 -0.17523338
-0.122056864 -0.021203464 -0.043908976 -0.026247757 -0.06626562 -0.12980093 -0.06260212 -0.06710182
-0.126015 -0.0059889476 -0.16110642 -0.0511274 0.08837579 0.059373662 -0.019337095 -0.060560193
-0.18533586 -0.0032516457 -0.060832523 -0.06987055 -0.035064656 -0.11689303 -0.08616825 -0.13313903
0.06853485 -0.054487318 -0.07113957 -0.026928267 -0.04998976 -0.1109354 0.04414423 0.085057475
-0.063461445 0.09573665 0.06653116 -0.055738397 0.045224484 -0.017018752 0.044400264 -0.05074701
-0.147228 -0.0533731 -0.03748827 -0.13119377 0.030918539 0.023657352 -0.055861086 -0.04064684
0.0052130697 0.07936501 -0.12887381 -0.045822132 -0.17862517 -0.08452293 -0.06758572 -0.017581046
0.11663944 -0.122677535 -0.13201883 -0.050506387 0.06284645 -0.0030118558 -0.14217462 -0.071828306
-0.14279039 -0.06253215 -0.0078026056 -0.036382094 -0.050050795 -0.037701234 -0.032154277 -0.11778762
-0.059413314 -0.06509252 -0.10547942 -0.08623441 -0.06266119 -0.10352346 -0.02773298 -0.087677635
-0.048136882 -0.01957861 -0.037479732 -0.054218173 -0.056042753 -0.118956916 0.014450111 -0.040610243
0.03168238 -0.12817043 -0.03246553 -0.056167558 0.1361964 -0.09111517 -0.0227967 -0.06238311
-0.06324145 -0.12647271 -0.119708404 -0.16955017 0.03301459 -0.19245026 0.0041403314 -0.12459752
-0.08131137 -0.17285527 -0.05041649 -0.102368504 -0.032062646 -0.10482117 -0.100653894 -0.10647455
-0.04753052 0.002233534 -0.084408425 0.020709308 -0.09008958 0.0075648054 -0.07348944 -0.035451576
-0.00012223532 -0.121456034 0.00031550156 -0.08187153 0.024172518 -0.081200436 -0.09253881 -0.0078083402
-0.09497283 0.012640121 -0.06186035 0.007876692 -0.021125112 0.0056398 0.040645946 -0.0174279
-0.10399601 -0.08255332 -0.012619949 0.004961101 -0.08422446 -0.07503922 -0.0864398 -0.027437355
-0.046085496 -0.026780004 -0.06707412 -0.07072027 0.03465999 -0.03318784 -0.033424508 -0.10047194
-0.08326953 0.021644048 -0.032007236 0.018252576 0.048280604 -0.0417311 -0.05104996 -0.1458737
-0.04276667 -0.08810192 -0.15028208 0.009648745 -0.103070736 -0.15990312 -0.070028394 0.029699305
-0.10942727 0.009258098 -0.007087888 -0.09873215 -0.13385269 -0.056333683 0.019254513 -0.06372142
-0.101640835 -0.06166711 -0.086082965 -0.04113688 -0.0015308629 -0.031614028 0.022648305 -0.13558185
-0.023395503 -0.04004701 -0.015005485 -0.0025328693 -0.06670226 -0.09372519 -0.0806385 0.049964756
-0.01980725 -0.0043454943 -0.072908394 -0.043866433 -0.031195741 0.019036427 0.022920156 -0.07707597
-0.004466144 0.029285248 -0.041832473 -0.06771377 -0.0637838 -0.10071721 0.03017931 -0.050523333
0.04273002 -0.041072287 0.031267688 0.008374468 -0.041934557 -0.012559948 -0.072501495 -0.09394594
-0.025284665 -0.09264604 -0.07585622 0.01511791 -0.047187217 -0.09166316 0.0469737 0.05560986
-0.0049268003 -0.091925256 -0.035496417 -0.024606716 -0.15379263 -0.023245215 -0.08460567 -0.09479418
0.07930164 -0.010047512 -0.035186265 -0.045668393 0.03224785 -0.028833723 0.0064821136 -0.034390856

fc2.bias f4 [128]
00000000: 5e04 1fbe 4e3f 96bd 47b9 50be f1bb c4bd
00000010: c5fe 1abe 1ca9 16bf f7c2 b2bd b43f f0bc
00000020: 9c96 2cbd a3ac 1bbe 7ac9 3fbd f3f3 1cbe
00000030: eba9 15be bf14 38be 5aeb bebd bbcf d4be
00000040: 43fb a8bd 412f 5abd b7f6 9dbd a9c1 20bd
00000050: 0284 0abd f1a4 9ebd b0e8 9ebd 41df 95bd
00000060: 30c5 3fbd d236 8bbd 3004 9bbd e233 74bd
00000070: 764c 87be e457 32bd 8bee 9abd 532f 3fbd
00000080: 5cf9 4cbd 7c55 aabe 1f8c f0bd 3991 87bd
00000090: 71e6 acbd 37db 2bbe 5cbf 89bd e23e 57bd
000000a0: c03b a7bd 4f63 3bbe 5463 89be a74e 33bd
000000b0: 28bc 0bbe e684 95bd d0e7 d5bd 42d4 11be
000000c0: 0c69 70be d262 abbd 426e d4bd 084b 06be
000000d0: b3ae 8fbd ccf3 8bbd 3465 b7bd 7471 5bbd
000000e0: 70ab b2bd 1f98 9dbe a6a2 24bd 8cf8 12be
000000f0: 9953 afbe 5c41 92bd 56bd 4bbd f503 b0bd
00000100: 6834 bfbd 34ae eebe 3642 f4bd ac07 45be
00000110: 1f5d bbbd d6a2 04be c2a5 39be 0471 3cbd
00000120: d77e 54bd 9e7e 66be 0137 5fbd cc84 a4bd
00000130: 4ae5 3abd 3628 92bd 76f4 13bd 3bee 1cbe
00000140: 4462 3dbd 47fc b3bd 4517 b4bd 26d0 6cbe
00000150: 094f 3fbd 2cf7 2bbd 4eba 60be 4370 18be
00000160: 10f3 1fbe 9b27 66bd 0548 f3bd 043a 97bd
00000170: 1d18 67bd 208f f5be b4f0 46be b640 2ebd
00000180: 53f2 e9bd 59f7 95bd 88bf 71bd 7edc 7ebd
00000190: dcc3 afbd 1287 04be 87f1 bcbe c2aa 54bd
000001a0: c3f2 2bbd 01ca 6abd 003c 3abe 7c78 84bd
000001b0: 4129 c9be 7210 49bd 727a 2ebe 686a 01be
000001c0: 2358 4abd f61a 15bd c15e eabe fdbc 16be
000001d0: 1721 41be c7f9 58bd 0855 1cbe 07c6 1fbe
000001e0: 7e75 91bd 3c26 12be 05a7 b8be ab85 3fbd
000001f0: 0314 5cbd 59e1 62bd 02e2 0ebe 1d06 8ebd
-0.1552901 -0.07336293 -0.20383178 -0.096061595 -0.1513625 -0.5885179 -0.08728593 -0.029327251
-0.04213582 -0.15202574 -0.046823002 -0.15327434 -0.146156 -0.17976664 -0.093222335 -0.41564736
-0.08251049 -0.05326772 -0.07713073 -0.03924719 -0.0338173 -0.07746304 -0.07759225 -0.07317973
-0.046818912 -0.067975655 -0.07569158 -0.05961979 -0.26425523 -0.04354085 -0.0756503 -0.04667599
-0.050042495 -0.33268344 -0.11745476 -0.06619496 -0.08442391 -0.16782843 -0.06725952 -0.052550204
-0.08165693 -0.18299602 -0.26833594 -0.04377618 -0.13645995 -0.07300739 -0.10444605 -0.14241126
-0.23477572 -0.08368458 -0.103725925 -0.1311456 -0.07015743 -0.0683361 -0.0895485 -0.053574994
-0.08724105 -0.30780122 -0.040194176 -0.14352626 -0.34243467 -0.071413726 -0.04974111 -0.08594505
-0.093361676 -0.4661728 -0.11926691 -0.19241208 -0.09148621 -0.12952742 -0.18129638 -0.046006218
-0.051878776 -0.22509238 -0.054495815 -0.080331415 -0.045628823 -0.07136576 -0.036121808 -0.15325253
-0.04623629 -0.087883525 -0.08793501 -0.23126277 -0.046706233 -0.04198377 -0.2194607 -0.14886574
-0.15620065 -0.056190114 -0.11878971 -0.073841125 -0.05641948 -0.47960758 -0.19427758 -0.042542182
-0.11423173 -0.073225684 -0.05902055 -0.062221996 -0.08582279 -0.1294215 -0.3690302 -0.05192066
-0.041979562 -0.057321552 -0.1818695 -0.06468293 -0.39289287 -0.04908795 -0.17038897 -0.12638247
-0.04940046 -0.036402665 -0.45775416 -0.14720531 -0.18860279 -0.05297258 -0.15266812 -0.15602885
-0.07102488 -0.14272398 -0.36064926 -0.046758335 -0.053730022 -0.05539069 -0.13953403 -0.0693476

out.weight f4 [1, 128]
00000000: d7ab b03d ef95 5cbd 43c0 de3e 58d0 a5bd
00000010: 6183 b13d 95f4 2f3f 60c1 50bd cfa6 5a3c
00000020: c69b 31bb 879c 053e 83ac 54bc 9bbd b6be
00000030: e4ba 9c3d 48d9 db3e 15fc c9bd d05b 083f
00000040: e7db 95bd daf8 563a b8db 41bd 30b3 4a3c
00000050: a5db 93bc 03b5 2cbd 1005 41bd 3c73 b1bc
00000060: 26ea 7d3b b80d 69bd b44c 7bbc a1a5 64bd
00000070: d27f be3e d723 f83b 610b aabc 0e56 193b
00000080: 5093 51bb 6955 a53e 4ed4 793d e962 99bd
00000090: 8181 10bd 49f0 e13d dad5 16bd 5386 8dbc
000000a0: a7c8 99bd adc8 d33e e4e5 0cbf 370d 933b
000000b0: 3ebb d63d 443c bdbd c376 fabd 06bf d43d
000000c0: 456e 743e e5d2 20bd 08c7 c1bd 2013 64be
000000d0: 5ec9 6bbd ef38 38bd dcf8 99bd 6d80 b439
000000e0: e424 a1bd cb77 13bf 2f0a ab3b 87db b93d
000000f0: a74d 8ebf 8821 92bd 3899 a636 8f65 31bd
00000100: 6d0f 36be 7f14 213f e256 39be 64d7 b23e
00000110: 732d 85bd 3462 71be 3151 1a3e 6cf1 c3bb
00000120: 8f13 83bb 37da 5d3e 1185 a93b b821 a8bd
00000130: bd8e 0bbc fa65 82bd acfe e8bc 78dd de3d
00000140: 7d71 ce3b 0514 a8bd 7ae9 d9bd 0ab6 953e
00000150: cf8a 8fba 64af 69bc 0d04 a03e 6d24 013e
00000160: c387 b13d b69f 9fbd 187e 69be 1cc2 6fbd
00000170: e175 26bb 77d5 133f ca74 e7be e909 34bc
00000180: 6a31 fcbd fb7f 18bd 72dc c8bc 2b22 0ebc
00000190: 8f13 45bd ce18 93be 4cba e93e 3b37 66bb
000001a0: d2fe debb 24db 653a 2702 dc3e 2862 1fbd
000001b0: 55d3 0d3f ee4f c03a c4af b83d 78dc 7abe
000001c0: bc34 dc3b 9b1d 06bd c213 2a3f 4316 d23d
000001d0: 6973 b73e 1a70 01ba 5f76 bd3d 999a b33d
000001e0: f20d 8bbc 23a2 84be bc4d a43e ca7b 913a
000001f0: f4de 1d3b ab6d b8bc fba6 ae3d 64ee 73bd
0.08626526 -0.053853925 0.4350606 -0.08096379 0.08667637 0.6873258 -0.050965667 0.013345434
-0.0027100905 0.13047992 -0.012980583 -0.35691532 0.07652834 0.4293921 -0.09862534 0.53265095
-0.07317334 0.0008200534 -0.04732868 0.012371823 -0.01804907 -0.042164814 -0.04712397 -0.021661393
0.00387443 -0.05689785 -0.015338112 -0.05582202 0.37206894 0.007572632 -0.020757379 0.002339724
-0.0031978674 0.32291725 0.060993485 -0.07489569 -0.035279755 0.11032159 -0.03682504 -0.017275965
-0.075089745 0.4136404 -0.55038285 0.0044876593 0.10484932 -0.092400104 -0.12229683 0.10387997
0.2387019 -0.039263625 -0.0946179 -0.2227292 -0.057565086 -0.04497617 -0.07518169 0.0003442796
-0.078683645 -0.57604665 0.00521972 0.09075075 -1.1117448 -0.07135302 4.9650225e-06 -0.043309744
-0.17779322 0.629219 -0.1809955 0.34929955 -0.065028094 -0.23572618 0.15070035 -0.0059797075
-0.0040001343 0.21665274 0.0051733335 -0.08209556 -0.008517918 -0.06367107 -0.02844175 0.108820856
0.00630015 -0.082069434 -0.10640235 0.29240447 -0.0010951402 -0.014263008 0.3125309 0.12611552
0.086684726 -0.07794134 -0.22802007 -0.058534727 -0.002539985 0.57747597 -0.4520629 -0.010988691
-0.123141125 -0.037231427 -0.024519179 -0.0086751385 -0.048114356 -0.28729862 0.45649946 -0.0035128135
-0.0068052793 0.0008768311 0.42970392 -0.03891197 0.5540059 0.0014672258 0.090179 -0.24498165
0.0067201536 -0.032743078 0.664364 0.10258152 0.35830238 -0.0004937664 0.09251093 0.087697215
-0.016974423 -0.2590495 0.32090557 0.0011099514 0.002408919 -0.022513231 0.08527943 -0.05955352
