scripts/traffic_following_control_v0_128.pt (torch, 71548 bytes, 5 tensors)

fc1.weight f4 [128, 3]
-0.04175076 0.12896563 -0.06839666 -0.10795865 -0.40610787 -0.15219997 0.49019942 -0.2639383
-0.0699542 -1.5499823 1.0603498 0.24289651 -1.6374011 0.14203079 0.0365943 -0.28300482
-0.34424123 -0.08842865 -0.05702349 0.13001275 -0.06155623 0.14637053 0.7897519 0.008902017
0.35933185 -0.19354945 -0.056583572 -0.24878561 0.6762257 0.13700125 -1.6744643 0.119352914
0.035929035 -0.023780594 -0.58602434 0.07632174 -1.6254175 0.12923865 0.029363953 0.27404907
1.5421951 -0.14326881 -1.0453194 1.519337 0.11038492 -0.29131246 -0.39309287 -0.102436855
-0.44258726 -1.2006016 -0.0057524657 0.21628119 -0.11589796 -0.13763085 -0.14688909 -0.6502434
0.074020326 0.9883522 0.021061152 -0.33093646 -1.1182559 0.8002748 0.28744295 -1.0193653
1.525719 0.10743487 -0.5008276 -0.9936135 0.17440543 0.19872737 -0.10903254 -0.1370946
0.17165095 0.89195436 0.0017449073 -0.27469942 -0.30649227 -0.0941532 0.819332 -0.28480008
-0.14639133 -0.4327829 -1.2172412 -0.012314214 1.1778384 1.580035 -0.3861603 -0.44352603
-1.1685766 -0.0029700273 -1.7345797 0.111747846 0.039984267 0.15959024 -0.106657125 -0.15994535
-0.07504737 0.17417996 -0.07177971 0.8754007 -0.29132947 -0.17696421 0.018732017 -0.49361277
-0.18345737 -0.5676066 0.56961256 0.2266713 0.15713412 -0.08197682 -0.12842384 -1.6217049
0.12698986 0.037957452 -0.27267537 0.06395122 0.013278167 0.2504567 -0.15168937 -0.16123933
0.20058279 -0.15688302 -0.14927615 0.87047714 -0.28523862 -0.15153834 -1.6473368 0.1294062
0.029883368 -1.3321435 -1.4168323 0.3565808 1.2086267 1.6086605 -0.40661797 -0.9582269
-0.087542266 0.2823942 1.2168075 0.25399637 -0.28698146 0.19574119 -0.12860283 -0.14068285
-0.90032935 -0.09127141 0.2781037 -0.4383251 -1.1881542 -0.005408635 -1.6861877 0.124200605
0.034517348 -1.2370423 -0.15093018 0.35152888 0.22163934 -0.13403253 -0.15667817 0.42899323
-0.26734248 -0.061654747 0.12397099 -0.52288014 -0.24094288 -0.65730566 0.6186026 0.26367533
-0.084304705 0.21167947 -0.04932148 -1.2496698 -0.15270038 0.36405095 -0.25510138 0.034564942
0.019324286 -0.29955715 0.077224486 0.036832448 -0.44372818 -1.2132119 -0.01523766 -0.45043766
-0.9759088 0.14954351 0.1892004 -0.11707552 -0.13947725 -1.6557174 0.120157905 0.030945996
-1.6748043 0.123653874 0.026522374 0.19109052 -0.14469899 -0.15445238 0.16973026 -0.08343617
-0.13741428 -1.7079493 0.10124989 0.040743303 1.2016584 1.643223 -0.40695143 0.8648303
-0.29126716 -0.17259142 -0.2816863 -0.38704816 -0.108697675 -1.3300163 -1.3814211 0.35466707
-1.3255339 -1.4118364 0.3432962 -1.1526277 -0.5351659 0.25014868 0.40894687 1.5897262
-0.22996286 0.4074386 1.6080385 -0.2403555 -0.43930948 -1.2291918 -0.019370707 -0.7669642
0.651988 0.28127256 0.082530655 -0.4217705 0.030151067 0.02427416 0.10071448 -0.09182035
0.78293526 -1.2735348 -0.30141848 0.22031374 -0.1326445 -0.14954326 0.16931178 -0.12853411
-0.14583896 -0.7227515 0.5895676 0.27213928 -1.0710045 0.73316747 0.27104852 0.08973439
00000000: d802 2bbd 910f 043e 8c13 8cbd 6d19 ddbd
00000010: 5fed cfbe 4fda 1bbe 6bfb fa3e ec22 87be
00000020: 2644 8fbd d265 c6bf 8bb9 873f ddb9 783e
00000030: 5c96 d1bf 8570 113e e8e3 153d 02e6 90be
00000040: 6340 b0be 141a b5bd 7791 69bd 1022 053e
00000050: 6322 7cbd 28e2 153e 2e2d 4a3f c4d9 113c
00000060: 58fa b73e d431 46be 2dc4 67bd a8c1 7ebe
00000070: 211d 2d3f 0e4a 0c3e d954 d6bf 4d6f f43d
00000080: 532a 133d 85cf c2bc b105 16bf 934e 9c3d
00000090: ae0d d0bf 2357 043e ac8c f03c 2950 8c3e
000000a0: a666 c53f 0fb5 12be 07cd 85bf a379 c23f
000000b0: 7d11 e23d e826 95be 7843 c9be 6aca d1bd
000000c0: cc9a e2be 50ad 99bf 2e7f bcbb d178 5d3e
000000d0: e95b edbd 1aef 0cbe 186a 16be 5a76 26bf
000000e0: f897 973d a604 7d3f 7088 ac3c 8170 a9be
000000f0: 0223 8fbf cfde 4c3f b92b 933e 907a 82bf
00000100: c34a c33f d006 dc3d 3d36 00bf 745d 7ebf
00000110: 5697 323e 307f 4b3e 744c dfbd 8762 0cbe
00000120: 44c5 2f3e 1f57 643f 60b5 e43a 67a5 8cbe
00000130: 8eec 9cbe 65d3 c0bd bebf 513f 51d1 91be
00000140: 9ce7 15be b895 ddbe 8fce 9bbf 8fc1 49bc
00000150: 69c3 963f 963e ca3f ceb6 c5be d815 e3be
00000160: eb93 95bf caa4 42bb b506 debf 0edc e43d
00000170: 8bc6 233d a06b 233e 0d6f dabd b7c8 23be
00000180: 6fb2 99bd 3b5c 323e 3e01 93bd 431a 603f
00000190: 2329 95be 1b36 35be e373 993c d0ba fcbe
000001a0: 40dc 3bbe ab4e 11bf 21d2 113f 851c 683e
000001b0: c4e7 203e 77e3 a7bd 8a81 03be 0794 cfbf
000001c0: a109 023e 4679 1b3d 1b9c 8bbe dbf8 823d
000001d0: ab8c 593c dc3b 803e 7554 1bbe ec1b 25be
000001e0: 9365 4d3e f1a5 20be d9db 18be 97d7 5e3f
000001f0: cc0a 92be de2c 1bbe efdb d2bf 0f83 043e
00000200: f7cd f43c ae83 aabf c35a b5bf c291 b63e
00000210: 48b4 9a3f 96e8 cd3f 3b30 d0be 5c4e 75bf
00000220: 5c49 b3bd f995 903e 59c0 9b3f d00b 823e
00000230: 3cef 92be 6170 483e 76b0 03be 2a0f 10be
00000240: fc7b 66bf 81ec babd 9c63 8e3e 266c e0be
00000250: 7015 98bf eb3a b1bb 00d5 d7bf e35c fe3d
00000260: 1062 0d3d 6757 9ebf 718d 1abe 98fb b33e
00000270: 6cf5 623e d33f 09be 3e70 20be 00a5 db3e
00000280: 1de1 88be b089 7cbd 81e4 fd3d 79db 05bf
00000290: bbb9 76be 2f45 28bf bd5c 1e3f 7400 873e
000002a0: f2a7 acbd 81c2 583e 5205 4abd 2ef5 9fbf
000002b0: 7d5d 1cbe e364 ba3e a69c 82be f893 0d3d
000002c0: f74d 9e3c 8e5f 99be df27 9e3d 9fdd 163d
000002d0: 5730 e3be 874a 9bbf 61a7 79bc c49f e6be
000002e0: 29d5 79bf ef21 193e c0bd 413e 4ac5 efbd
000002f0: 20d3 0ebe 8cee d3bf 5915 f63d 7582 fd3c
00000300: fd5f d6bf 3e3e fd3d 7345 d93c 3cad 433e
00000310: f92b 14be c428 1ebe c5cd 2d3e 95e0 aabd
00000320: 54b6 0cbe 159e dabf 1a5c cf3d 73e2 263d
00000330: f1cf 993f 2255 d23f f05b d0be 8565 5d3f
00000340: f820 95be cebb 30be 3039 90be 2d2b c6be
00000350: e39c debd f93d aabf 68d2 b0bf ec96 b53e
00000360: 18ab a9bf 0eb7 b4bf 85c4 af3e 4e89 93bf
00000370: a200 09bf 7d13 803e 7c61 d13e 267c cb3f
00000380: 627b 6bbe cb9b d03e 35d4 cd3f c11f 76be
00000390: 2ced e0be 2856 9dbf 51af 9ebc c457 44bf
000003a0: b0e8 263f f502 903e d505 a93d 4ef2 d7be
000003b0: 5fff f63c 9ada c63c 6543 ce3d 4f0c bcbd
000003c0: 726e 483f 3003 a3bf 8653 9abe ed99 613e
000003d0: f6d3 07be de21 19be 1160 2d3e 729e 03be
000003e0: cf56 15be 3e06 39bf e7ed 163f d755 8b3e
000003f0: ad16 89bf ddb0 3b3f dfc6 8a3e aac6 b73d

fc1.bias f4 [128]
0.7530906 0.44042632 -0.81709313 -0.8797121 0.09855073 0.48039472 0.83581686 -0.31453148
-0.79834723 -0.296203 0.09268857 -0.6839109 0.10097457 0.6333839 -0.41206512 0.53948444
0.2623567 0.71167845 -0.6591088 0.043666847 -0.11741095 -0.3428901 -0.5786089 0.6749426
-0.31767982 0.43959242 -0.17764036 0.34333655 -0.28033105 0.2650999 0.10343579 0.6587298
0.752316 -0.11373645 0.4007503 -0.26243293 0.6276912 0.114852995 0.7821744 0.57449013
0.6124041 -0.21909519 0.13278101 -0.23065086 -0.30004877 0.017503396 0.50006044 0.65910286
-0.0018154609 0.19914104 0.113992706 -0.009600907 0.71651536 -0.96058095 0.40635034 -0.20930281
0.74451464 -0.0339246 0.77794963 0.67966485 0.2588002 -0.5831379 0.70451945 0.08592051
0.09096492 0.6498204 0.6856343 0.09864318 -0.28200018 -0.080220684 0.47794887 -0.1841747
-0.20112589 -0.5378056 -0.3104984 -0.33497578 0.27545747 -0.17985407 -0.8797422 0.7627218
-0.11947665 0.670612 0.6856895 -0.16284229 -0.066095196 -0.7474807 0.66874015 -0.14752437
0.64655596 0.7665593 -0.31735963 -0.25988805 0.8061915 0.6508248 -0.03940877 -0.50398594
0.09788334 -0.26603574 0.4054984 -0.1838535 -0.0070361444 0.26392376 -0.21983871 0.40929815
-0.9538686 -0.034014855 -0.21323484 0.6594873 0.011052782 0.28890175 -0.24162531 0.652121
-0.121946044 -0.7475083 0.7272268 0.43850768 -0.807207 -0.57672083 0.11453988 0.09875493
0.37700972 0.7884291 0.00413107 0.733562 0.7674887 0.6789168 0.49410757 -0.05424355
00000000: 8cca 403f 8f7f e13e 042d 51bf d034 61bf
00000010: f7d4 c93d 4cf6 f53e 18f8 553f 450a a1be
00000020: 7c60 4cbf eba7 97be 81d3 bd3d c914 2fbf
00000030: c1cb ce3d 7325 223f 33fa d2be a71b 0a3f
00000040: 9e53 863e 8f30 363f 5bbb 28bf 02dc 323d
00000050: 2775 f0bd 4b8f afbe b61f 14bf 0ac9 2c3f
00000060: eea6 a2be 4212 e13e 5be7 35be cfc9 af3e
00000070: 8d87 8fbe 2dbb 873e 25d6 d33d 84a2 283f
00000080: c897 403f a8ee e8bd 252f cd3e 9c5d 86be
00000090: 5fb0 203f 0c38 eb3d 953c 483f c911 133f
000000a0: 84c6 1c3f 7d5a 60be bff7 073e bd2f 6cbe
000000b0: fe9f 99be 4863 8f3c f603 003f f7ba 283f
000000c0: c2f4 edba a1eb 4b3e 0275 e93d 1f4d 1dbc
000000d0: 8d6d 373f a2e8 75bf 270d d03e 7a53 56be
000000e0: 8398 3e3f 85f4 0abd b527 473f 84fe 2d3f
000000f0: 7681 843e 8748 15bf 635b 343f 18f7 af3d
00000100: d14b ba3d a15a 263f bb85 2f3f 7005 ca3d
00000110: 5462 90be be4a a4bd b7b5 f43e 4b98 3cbe
00000120: f2f3 4dbe a1ad 09bf a5f9 9ebe f281 abbe
00000130: c308 8d3e aa2b 38be c936 61bf bc41 433f
00000140: 2db0 f4bd 3aad 2b3f 5989 2f3f 21c0 26be
00000150: eb5c 87bd e55a 3fbf 8e32 2b3f a110 17be
00000160: b184 253f 3b3d 443f f67c a2be 0c10 85be
00000170: 9162 4e3f 749c 263f 176b 21bd 3905 01bf
00000180: 1077 c83d d635 88be 7c9d cf3e 1844 3cbe
00000190: 758f e6bb 0421 873e 661d 61be 878f d13e
000001a0: bc30 74bf 2953 0bbd 3c5a 5abe 29d4 283f
000001b0: ba16 353c eeea 933e a06c 77be 67f1 263f
000001c0: d9be f9bd b45c 3fbf 892b 3a3f 1484 e03e
000001d0: 1ea5 4ebf faa3 13bf e293 ea3d 0640 ca3d
000001e0: 6b07 c13e 7dd6 493f ed5d 873b b8ca 3b3f
000001f0: 247a 443f 7ecd 2d3f abfb fc3e 7c2e 5ebd

fc2.weight f4 [128, 128]
-0.10737634 -0.071011946 -0.28979155 0.10458068 -0.17202465 -0.0609583 -0.09975376 -0.32988378
-0.20554607 -0.018667713 -0.16159609 0.07651734 -0.14249691 -0.21912637 -0.30232388 -0.067289054
0.11383019 -0.13006964 0.011205939 -0.10525678 0.044580504 -0.31693557 0.048065204 -0.124382794
-0.35983407 -0.0763595 -0.3335846 0.13969949 -0.0014126771 0.075383954 -0.19021323 -0.13159303
-0.095351785 -0.31811047 -0.076730214 -0.059822127 -0.12050383 -0.16791989 0.09680774 -0.12654865
-0.13681696 -0.34393257 -0.15579072 -0.0018642904 0.01764353 -0.014815527 -0.24693577 -0.1387729
-0.06500738 0.17336096 -0.16485411 -0.08680759 -0.13938849 -0.26457638 -0.054125283 -0.08502345
-0.087468 -0.09395472 0.1658877 0.07234544 0.12686966 0.09376264 -0.13186009 -0.16206716
-0.17716813 -0.12610361 -0.1297595 -0.2007085 0.007908111 -0.34646767 -0.058439925 0.009294226
0.01809573 -0.14046612 0.0330094 0.035466466 0.11401803 -0.05339099 -0.04059688 -0.12523328
-0.24107152 -0.10975086 -0.1350461 -0.08940743 0.043073744 -0.06360573 0.080505095 0.1379574
-0.12387968 -0.10283706 -0.36541852 0.00073211145 -0.1030419 -0.09713139 -0.07800953 -0.23833567
-0.17384374 0.011473462 -0.06079235 -0.11345411 -0.054759447 0.15597662 0.021272564 -0.07542861
-0.022090044 -0.34068593 -0.09326689 -0.114971355 -0.31242126 0.04400695 -0.30333927 -0.11699827
-0.056718208 -0.26246312 -0.13968417 -0.061027143 -0.24988124 0.10933288 -0.104341865 -0.16858228
-0.05367369 -0.09744969 -0.02980997 -0.10555329 -0.10573372 -0.105447486 -0.07220178 -0.32913184
-0.0077012447 -0.007289504 -0.014851879 -0.022328077 -0.02283028 -0.022733111 -0.02098297 -0.011380656
-0.030129932 -0.033599857 -0.015222597 -0.022508413 -0.005132193 0.015222381 0.0043539875 -0.018802272
-0.022179866 -0.009572065 -0.050408695 -0.031702682 -0.025742138 0.010302278 -0.034609765 -0.020792278
-0.010591527 -0.025105659 -0.04240657 -0.034902032 0.01700259 -0.030698167 -0.02257012 -0.03022396
-0.024209976 -0.021810433 -0.012907798 -0.033326227 -0.020105857 -0.010056106 -0.015812045 -0.011652373
-0.012620886 -0.034855943 -0.011899814 -0.044450738 0.030072052 -0.014693713 -0.033831857 -0.023574067
-0.03285331 -0.02119717 -0.012041973 -0.03207227 -0.013209054 -0.03611298 -0.005113364 -0.021532867
-0.00041210777 -0.034782123 -0.023739623 -0.026330251 -0.03838953 -0.038064536 -0.018354626 -0.026449924
-0.009439692 -0.0055615497 -0.017683083 -0.0116552515 0.022424756 -0.03270796 -0.015422237 -0.051677123
-0.04949975 -0.02896555 0.016729087 0.00041076745 -0.029032784 -0.012376365 -0.025362859 -0.010312281
-0.028614953 -0.023695515 -0.025150107 -0.029482199 -0.012812807 -0.03197333 -0.01765473 -0.032177243
-0.0229791 -0.010379581 -0.0137738595 0.027230157 -0.024964217 -0.008610735 -0.02954495 0.0031100686
-0.01859835 0.020234978 -0.017328572 -0.025224343 -0.033472124 -0.0340484 0.017013643 -0.022500552
-0.024368087 -0.043069165 -0.016665237 0.0036067385 -0.038547337 -0.038489345 -0.020013643 -0.012846601
-0.023771 -0.043573495 -0.02849804 -0.01135707 -0.038554184 -0.024466269 -0.00395885 -0.014073363
-0.018735493 0.0016563425 -0.039382774 -0.013295603 -0.011491788 -0.024292141 -0.011292553 -0.02048839
00000000: 20e8 dbbd b66e 91bd 8f5f 94be 652e d63d
00000010: 3b27 30be 69af 79bd b34b ccbd 87e6 a8be
00000020: ab7a 52be 08ed 98bc 7279 25be 20b5 9c3d
00000030: b6ea 11be aa62 60be 32ca 9abe d8ce 89bd
00000040: cd1f e93d fa30 05be 1d99 373c de90 d7bd
00000050: 0c9a 363d 6145 a2be 05e0 443d 68bc febd
00000060: 2c3c b8be 5f62 9cbd 9acb aabe 620d 0f3e
00000070: 9429 b9ba e762 9a3d 42c7 42be 53c0 06be
00000080: cc47 c3bd 60df a2be bb24 9dbd 0c08 75bd
00000090: b6ca f6bd 31f3 2bbe 2343 c63d f895 01be
000000a0: bf19 0cbe ee17 b0be 9a87 1fbe 355b f4ba
000000b0: 2a89 903c d3bc 72bc bbdc 7cbe 7c1a 0ebe
000000c0: 9722 85bd 8985 313e 84cf 28be 2ec8 b1bd
000000d0: dbbb 0ebe 8e76 87be 79b2 5dbd c620 aebd
000000e0: 6c22 b3bd 556b c0bd 77de 293e d929 943d
000000f0: 1fea 013e a106 c03d 5506 07be eff4 25be
00000100: 906b 35be 4e21 01be addf 04be 8786 4dbe
00000110: 0691 013c 3664 b1be b45e 6fbd cf46 183c
00000120: 7f3d 943c 5ad6 0fbe dd34 073d 4945 113d
00000130: 4982 e93d 83b0 5abd ea48 26bd 273d 00be
00000140: 74db 76be 0fc5 e0bd 8649 0abe 3e1b b7bd
00000150: 186e 303d b943 82bd dbdf a43d b444 0d3e
00000160: a1b4 fdbd 3d9c d2bd 2318 bbbe 2beb 3f3a
00000170: a207 d3bd d2ec c6bd 76c3 9fbd 440e 74be
00000180: 1804 32be 30fb 3b3c 6601 79bd a15a e8bd
00000190: 714b 60bd 56b8 1f3e cd43 ae3c 517a 9abd
000001a0: 2ef6 b4bc 636e aebe b602 bfbd 1a76 ebbd
000001b0: aef5 9fbe a240 343d 494f 9bbe ca9c efbd
000001c0: 5a51 68bd 9161 86be 5e09 0fbe 99f7 79bd
000001d0: dee0 7fbe ebe9 df3d 30b1 d5bd d5a0 2cbe
000001e0: f1d8 5bbd b493 c7bd 0a34 f4bc 532c d8bd
000001f0: ec8a d8bd daf4 d7bd 87de 93bd f883 a8be
00000200: b95a fcbb cbdc eebb 4c55 73bc 5fe9 b6bc
00000210: 9106 bbbc ca3a babc 7ae4 abbc ee75 3abc
00000220: 0cd3 f6bc 01a0 09bd 3368 79bc 9063 b8bc
00000230: f52b a8bb 4b67 793c e5ab 8e3b 3907 9abc
00000240: 8db2 b5bc 27d4 1cbc 5979 4ebd acda 01bd
00000250: 2de1 d2bc e3ca 283c f8c2 0dbd 9154 aabc
00000260: 1688 2dbc 62aa cdbc 83b2 2dbd 6ff5 0ebd
00000270: 0449 8b3c b97a fbbc f9e4 b8bc 3d98 f7bc
00000280: 0054 c6bc cbab b2bc 3b7b 53bc 1581 08bd
00000290: 0ab5 a4bc 5ec2 24bc 4388 81bc 98e9 3ebc
000002a0: d5c7 4ebc 1bc5 0ebd 70f7 42bc fa11 36bd
000002b0: aa59 f63c e6bd 70bc 4693 0abd 671e c1bc
000002c0: 3191 06bd b0a5 adbc b24b 45bc 365e 03bd
000002d0: ca6a 58bc 34eb 13bd 028e a7bb b265 b0bc
000002e0: 2b10 d8b9 b377 0ebd 9979 c2bc 8ab2 d7bc
000002f0: 573e 1dbd 8fe9 1bbd 715c 96bc 83ad d8bc
00000300: f0a8 1abc a93d b6bb 1ddc 90bc abf5 3ebc
00000310: 1fb4 b73c c8f8 05bd 8dad 7cbc 64ab 53bd
00000320: 40c0 4abd 2949 edbc 700b 893c 465c d739
00000330: 29d6 edbc 3dc6 4abc c5c5 cfbc d7f4 28bc
00000340: e869 eabc 191d c2bc 9907 cebc a784 f1bc
00000350: cfec 51bc 77f6 02bd a7a0 90bc 49cc 03bd
00000360: aa3e bcbc 1e0f 2abc c1ab 61bc c711 df3c
00000370: c281 ccbc 0a14 0dbc 4008 f2bc 4bd2 4b3b
00000380: 915b 98bc d3c3 a53c a6f4 8dbc 48a3 cebc
00000390: 111a 09bd 5676 0bbd 3260 8b3c 1453 b8bc
000003a0: 959f c7bc 4b69 30bd 8985 88bc 085f 6c3b
000003b0: d0e3 1dbd 01a7 1dbd a7f3 a3bc 8d7a 52bc
000003c0: 66bb c2bc 1f7a 32bd b974 e9bc 0113 3abc
000003d0: feea 1dbd 7c6d c8bc 3eb9 81bb f693 66bc
000003e0: 2d7b 99bc a219 d93a d54f 21bd cdd5 59bc
000003f0: 0d48 3cbc 5000 c7bc 6604 39bc 45d7 a7bc

fc2.bias f4 [128]
-0.23123552 -0.052376732 -0.05637362 -0.05465706 -0.2690468 -0.084410705 -0.065080464 -0.07653051
-0.24898496 -0.22500151 -0.09160192 -0.088822566 -0.14090265 -0.051480737 -0.059481744 -0.052516818
-0.39936683 -0.10502868 -0.10364254 -0.4371991 -0.050343316 -0.23177315 -0.29081506 -0.055315904
-0.36276734 -0.17272508 -0.17022975 -0.22061636 -0.08224689 -0.25974658 -0.10894557 -0.13806209
-0.11967902 -0.060313724 -0.14354107 -0.18805377 -0.07283579 -0.099945515 -0.18354774 -0.16786611
-0.50216466 -0.04492092 -0.17496403 -0.16111961 -0.053302713 -0.050095584 -0.1417457 -0.4934797
-0.048353747 -0.05197703 -0.08187161 -0.05319752 -0.06709327 -0.08332004 -0.053484857 -0.13974045
-0.05941308 -0.053654715 -0.11243951 -0.049194567 -0.19381772 -0.059272178 -0.07827236 -0.07969191
-0.17457831 -0.1330562 -0.19093508 -0.24757491 -0.09350474 -0.07133265 -0.14362454 -0.13492827
-0.17861192 -0.19668643 -0.1575584 -0.05554656 -0.07971451 -0.05501551 -0.067811504 -0.45426318
-0.18635112 -0.19034499 -0.057563078 -0.12851824 -0.09153159 -0.05593243 -0.056520138 -0.05507172
-0.14309646 -0.063740335 -0.07778274 -0.082864486 -0.19443491 -0.50039595 -0.35640547 -0.15594825
-0.04789505 -0.06700848 -0.07131008 -0.133778 -0.06650302 -0.096142806 -0.065577336 -0.27868667
-0.10924336 -0.054943588 -0.05685064 -0.05672601 -0.16823223 -0.26293796 -0.05560595 -0.06368627
-0.5429938 -0.116360754 -0.1382366 -0.29725692 -0.062137265 -0.32746094 -0.06799877 -0.056428697
-0.13259037 -0.057062633 -0.15098082 -0.14822209 -0.0620183 -0.48280242 -0.19144742 -0.13633041
00000000: 01c9 6cbe fc88 56bd 06e8 66bd 15e0 5fbd
00000010: 81c0 89be 85df acbd e848 85bd 07bc 9cbd
00000020: eaf5 7ebe cc66 66be ca99 bbbd 9be8 b5bd
00000030: c948 10be 77dd 52bd 21a3 73bd e01b 57bd
00000040: cf79 ccbe 4719 d7bd 8a42 d4bd 8fd8 dfbe
00000050: cb34 4ebd f155 6dbe b6e5 94be ee92 62bd
00000060: a4bc b9be d8de 30be b550 2ebe 41e9 61be
00000070: 0f71 a8bd 81fd 84be db1e dfbd 2660 0dbe
00000080: 461a f5bd 860b 77bd 6efc 12be 2b91 40be
00000090: ee2a 95bd 3cb0 ccbd f0f3 3bbe 18e5 2bbe
000000a0: dd8d 00bf 00ff 37bd c529 33be 8afc 24be
000000b0: f253 5abd 0731 4dbd c925 11be 5fa9 fcbe
000000c0: 940e 46bd dee5 54bd 4dac a7bd a5e5 59bd
000000d0: 3268 89bd b2a3 aabd f012 5bbd 1f18 0fbe
000000e0: 215b 73bd 0cc5 5bbd b046 e6bd 3e80 49bd
000000f0: 2778 46be 62c7 72bd 424d a0bd 8335 a3bd
00000100: a8c4 32be e23f 08be 7c84 43be 4784 7dbe
00000110: 6a7f bfbd da16 92bd 5012 13be a32a 0abe
00000120: 0be6 36be 2b68 49be fd56 21be ca84 63bd
00000130: 5c41 a3bd f257 61bd c2e0 8abd 2f95 e8be
00000140: d4d2 3ebe cce9 42be 43c7 6bbd 499a 03be
00000150: ea74 bbbd 6719 65bd a981 67bd e292 61bd
00000160: e187 12be 4b8a 82bd 8f4c 9fbd dbb4 a9bd
00000170: f219 47be f319 00bf c77a b6be e6b0 1fbe
00000180: 9a2d 44bd be3b 89bd 050b 92bd 1afd 08be
00000190: bc32 88bd 85e6 c4bd 694d 86bd 05b0 8ebe
000001a0: fcba dfbd 870c 61bd 37dc 68bd 8859 68bd
000001b0: 1245 2cbe ce9f 86be 11c3 63bd f26d 82bd
000001c0: a401 0bbf 8c4e eebd e58d 0dbe 0f32 98be
000001d0: a583 7ebd f6a8 a7be f042 8bbd c721 67bd
000001e0: c5c5 07be 82ba 69bd b79a 1abe 88c7 17be
000001f0: e706 7ebd e131 f7be cb0a 44be 339a 0bbe

out.weight f4 [1, 128]
0.42931187 0.0067673046 -0.0066953786 0.0021323839 0.14999841 -0.01826026 -0.00050379103 -0.05784503
0.38967982 0.11734719 -0.027382536 -0.034511313 -0.20661825 0.0039835814 0.005723893 -0.0056629414
-0.6465457 -0.09163444 -0.060781255 0.25559118 0.009904428 0.4059329 0.33162105 0.002917643
-0.5776564 -0.41964057 -0.34517425 0.11670594 -0.016952751 0.34932497 -0.067988954 -0.08722729
-0.08483653 -0.00036628777 -0.21951827 -0.838811 -0.007142623 -0.049924072 0.090318725 -0.22172083
0.515873 -0.011269287 0.09769715 -0.19265991 -0.00071421766 0.0006625913 -0.2245829 0.88922054
0.012395192 0.0003556957 -0.037018515 -0.00016515759 -0.02412987 -0.031146554 0.0045259744 -0.15400045
-0.015129958 -0.0072112586 -0.06637383 -0.013114783 0.11150217 0.002787816 -0.009328165 -0.027626622
0.09365347 -0.08806074 0.1086225 0.3294962 -0.056893367 -0.0003003127 -0.14737934 -0.09892502
0.10454469 0.09774995 -0.78870577 -0.0022697565 -0.010672998 0.005350254 -0.008490635 0.4610905
0.09604879 0.0881905 -0.010818073 -0.10635053 -0.0069494513 -0.0007276738 -0.00960791 0.00960169
-0.21146432 0.017166093 -0.032462906 -0.015840895 0.09231505 0.62394714 0.2524136 -0.79172987
-0.021080598 -0.0024543568 -0.02510598 -0.07304193 -0.0063416185 -0.054395653 0.013710317 0.2886607
0.050034534 -0.0019959458 -0.0055518793 0.0069216117 -0.25206658 0.13210613 -0.011941691 -0.034401964
0.7148057 -0.06046226 -0.07344186 0.34577876 -0.019572696 0.31516883 0.00014285954 -0.0047859107
-0.08018302 -0.009437582 0.094147265 -0.19012393 -0.0051466585 0.5150188 0.08623531 -0.08645149
00000000: c4ce db3e 44c0 dd3b e864 dbbb 77bf 0b3b
00000010: 2f99 193e 8a96 95bc d810 04ba e9ee 6cbd
00000020: 1d84 c73e b953 f03d 5751 e0bc bc5b 0dbd
00000030: bc93 53be b488 823b 7f8f bb3b 3290 b9bb
00000040: 0584 25bf d6aa bbbd c4f5 78bd d9dc 823e
00000050: 2f46 223c 70d6 cf3e 3cca a93e ed35 3f3b
00000060: 4ae1 13bf 21db d6be aeba b0be 8603 ef3d
00000070: 7fe0 8abc b9da b23e cb3d 8bbd 39a4 b2bd
00000080: c6be adbd 500a c0b9 66c9 60be 51bc 56bf
00000090: aa0c eabb 2f7d 4cbd 06f9 b83d c90a 63be
000000a0: 4110 043f d1a2 38bc 7215 c83d a448 45be
000000b0: 563a 3bba c0b1 2d3a 0ff9 65be f5a3 633f
000000c0: 3415 4b3c ab7c ba39 baa0 17bd 272e 2db9
000000d0: 01ac c5bc 0f27 ffbc a04e 943b 4bb2 1dbe
000000e0: a5e3 77bc 6c4c ecbb 01ef 87bd 63df 56bc
000000f0: 405b e43d cbb3 363b 29d5 18bc 3a51 e2bc
00000100: 64cd bf3d 3059 b4bd 7975 de3d bab3 a83e
00000110: 0509 69bd 4a73 9db9 9cea 16be 3399 cabd
00000120: 871b d63d 2031 c83d 9fe8 49bf 32c0 14bb
00000130: ccdd 2ebc 2f51 af3b 4e1c 0bbc 0e14 ec3e
00000140: 3ab5 c43d 399d b43d 493e 31bc 4fce d9bd
00000150: 39b8 e3bb 5dc1 3eba 7f6a 1dbc 6850 1d3c
00000160: 1a8a 58be e89f 8c3c d3f7 04bd c4c4 81bc
00000170: ac0f bd3d 00bb 1f3f 5b3c 813e cfae 4abf
00000180: 38b1 acbc 46d9 20bb 0eab cdbc 0297 95bd
00000190: 5acd cfbb facd 5ebd 3da1 603c 56cb 933e
000001a0: 03f1 4c3d 6ace 02bb 8aec b5bb b0ce e23b
000001b0: df0e 81be d446 073e 15a7 43bc 13e9 0cbd
000001c0: 82fd 363f 46a7 77bd b068 96bd ea09 b13e
000001d0: eb56 a0bc cf5d a13e 91cc 1539 21d3 9cbb
000001e0: ff36 a4bd 17a0 1abc 48d0 c03d d9af 42be
000001f0: 4da5 a8bb 46d8 033f 239c b03d 7b0d b1bd
